[STARTING]		 server is starting...
[GLOBAL MODEL SUMMARY]
Model: "Global_Model"
_________________________________________________________________
 Layer (type)                Output Shape              Param #   
=================================================================
 Global_Model_Conv2D_1 (Conv  (None, 48, 48, 16)       448       
 2D)                                                             
                                                                 
 Global_Model_MaxPool2D_1 (M  (None, 24, 24, 16)       0         
 axPooling2D)                                                    
                                                                 
 Global_Model_Conv2D_2 (Conv  (None, 22, 22, 32)       4640      
 2D)                                                             
                                                                 
 Global_Model_MaxPool2D_2 (M  (None, 11, 11, 32)       0         
 axPooling2D)                                                    
                                                                 
 Global_Model_Conv2D_3 (Conv  (None, 9, 9, 64)         18496     
 2D)                                                             
                                                                 
 Global_Model_MaxPool2D_3 (M  (None, 4, 4, 64)         0         
 axPooling2D)                                                    
                                                                 
 Global_Model_Conv2D_4 (Conv  (None, 2, 2, 128)        73856     
 2D)                                                             
                                                                 
 Global_Model_MaxPool2D_4 (M  (None, 1, 1, 128)        0         
 axPooling2D)                                                    
                                                                 
 Global_Model_Flatten (Flatt  (None, 128)              0         
 en)                                                             
                                                                 
 Global_Model_Dense_1 (Dense  (None, 128)              16512     
 )                                                               
                                                                 
 Global_Model_Dense_2 (Dense  (None, 512)              66048     
 )                                                               
                                                                 
 Global_Model_Output (Dense)  (None, 3)                1539      
                                                                 
=================================================================
Total params: 181,539
Trainable params: 181,539
Non-trainable params: 0
_________________________________________________________________
[LISTENING]		 server is listening on 192.168.1.223!
[ACCEPTING CONNECTION] 3 clients left!
[ACCEPTING CONNECTION] 2 clients left!
…
